…
tmp_path = PosixPath('/tmp/pytest-of-ubuntu/pytest-3/test_clean_load_trained_embed0')

    def test_clean_load_trained_embed(self, tmp_path):
        d = _write_tiny_checkpoint(
            tmp_path, use_drafter_prefix=False,
            include_extras=True, embed_tokens_trained=True,
        )
        result = load_dflash_drafter(str(d), dtype=torch.float32)
        assert result.expected_class_name == "Qwen3ForCausalLM"
>       assert result.embed_tokens_trained is True
E       AssertionError: assert False is True
E        +  where False = DFlashLoadResult(model=Qwen3ForCausalLM(\n  (model): Qwen3Model(\n    (embed_tokens): Embedding(256, 64)\n    (layers): ModuleList(\n      (0-1): 2 x Qwen3DecoderLayer(\n        (self_attn): Qwen3Attention(\n          (q_proj): Linear(in_features=64, out_features=64, bias=False)\n          (k_proj): Linear(in_features=64, out_features=32, bias=False)\n          (v_proj): Linear(in_features=64, out_features=32, bias=False)\n          (o_proj): Linear(in_features=64, out_features=64, bias=False)\n          (q_norm): Qwen3RMSNorm((16,), eps=1e-06)\n          (k_norm): Qwen3RMSNorm((16,), eps=1e-06)\n        )\n        (mlp): Qwen3MLP(\n          (gate_proj): Linear(in_features=64, out_features=128, bias=False)\n          (up_proj): Linear(in_features=64, out_features=128, bias=False)\n          (down_proj): Linear(in_features=128, out_features=64, bias=False)\n          (act_fn): SiLUActivation()\n        )\n        (input_layernorm): Qwen3RMSNorm((64,), eps=1e-06)\n        (post_attention_layernorm): Qwen3RMSNorm((64,), eps=1e-06)\n      )\n    )\n    (norm): Qwen3RMSNorm((64,), eps=1e-06)\n    (rotary_emb): Qwen3RotaryEmbedding()\n  )\n  (lm_head): Linear(in_features=64, out_features=256, bias=False)\n), ex....1.mlp.gate_proj.weight', 'model.layers.1.mlp.up_proj.weight': 'model.layers.1.mlp.up_proj.weight', 'model.layers.1.post_attention_layernorm.weight': 'model.layers.1.post_attention_layernorm.weight', 'model.layers.1.self_attn.k_norm.weight': 'model.layers.1.self_attn.k_norm.weight', 'model.layers.1.self_attn.k_proj.weight': 'model.layers.1.sel
…
_proj.weight', 'drafter.model.layers.1.self_attn.q_norm.weight': 'model.layers.1.self_attn.q_norm.weight', 'drafter.model.layers.1.self_attn.q_proj.weight': 'model.layers.1.self_attn.q_proj.weight', 'drafter.model.layers.1.self_attn.v_proj.weight': 'model.layers.1.self_attn.v_proj.weight', 'drafter.model.norm.weight': 'model.norm.weight'}, qwen3_unmapped=[], checkpoint_extras=['fc.bias', 'fc.weight', 'hidden_norm.weight'], fc_keys=['fc.bias', 'fc.weight'], hidden_norm_keys=['hidden_norm.weight'], warnings=[]) = DFlashLoadResult(model=Qwen3ForCausalLM(\n  (model): Qwen3Model(\n    (embed_tokens): Embedding(256, 64)\n    (layers): ModuleList(\n      (0-1): 2 x Qwen3DecoderLayer(\n        (self_attn): Qwen3Attention(\n          (q_proj): Linear(in_features=64, out_features=64, bias=False)\n          (k_proj): Linear(in_features=64, out_features=32, bias=False)\n          (v_proj): Linear(in_features=64, out_features=32, bias=False)\n          (o_proj): Linear(in_features=64, out_features=64, bias=False)\n          (q_norm): Qwen3RMSNorm((16,), eps=1e-06)\n          (k_norm): Qwen3RMSNorm((16,), eps=1e-06)\n        )\n        (mlp): Qwen3MLP(\n          (gate_proj): Linear(in_features=64, out_features=128, bias=False)\n          (up_proj): Linear(in_features=64, out_features=128, bias=False)\n          (down_proj): Linear(in_features=128, out_features=64, bias=False)\n          (act_fn): SiLUActivation()\n        )\n        (input_layernorm): Qwen3RMSNorm((64,), eps=1e-06)\n        (post_attention_layernorm): Qwen3RMSNorm((64,), eps=1e-06)\n      )\n    )\n    (norm): Qwen3RMSNorm((64,), eps=1e-06)\n    (rotary_emb): Qwen3RotaryEmbedding()\n  )\n  (lm_head): Linear(in_features=64, out_features=256, bias=False)\n), ex...model.layers.1.mlp.up_proj.weight', 'drafter.model.layers.1.post_attention_layernorm.weight': 'model.layers.1.post_attention_layernorm.weight', 'drafter.model.layers.1.self_attn.k_norm.weight': 'model.layers.1.self_attn.k_norm.weight', 'drafter.model.layers.1.self_attn.k_proj.weight': 'model.layers.1.self_attn.k_proj.weight', 'drafter.model.la
…
